LanguageIdentificationModel_weights.bin (torch, 12656 bytes, 4 tensors)

fc.weight f4 [128, 16]
000000 32 ab 74 3e 1c 21 97 bd c8 12 d0 bd e6 e4 6b be
       0.23893431 -0.07379362 -0.10159832 -0.23036537
000010 80 22 94 3c 38 01 51 be 7a 32 4e be 80 ca 61 3c
       0.018082857 -0.20410621 -0.20136443 0.01378119
000020 94 65 8f 3d 10 a5 69 3e 40 b1 34 bd ac 02 4b 3e
       0.07001796 0.22816873 -0.04411435 0.19825238
000030 a8 36 2d 3e 3c 9f 9d bd 20 0b d3 bd 38 48 45 bd
       0.16915381 -0.07696387 -0.10304856 -0.048164576
000040 b8 63 0b 3e 38 6d 2e be 08 97 9a 3d fc ea 7f be
       0.13612258 -0.17033851 0.07548338 -0.24991983
000050 2c fe d2 3d a0 57 17 bd 50 f6 c9 bc f8 08 59 be
       0.10302386 -0.0369488 -0.024653584 -0.21194828
000060 6e e7 32 be ca bb 1a 3e 98 21 c1 bd b0 c9 63 3e
       -0.17471096 0.15110698 -0.094302356 0.22244906
000070 be 48 34 3e a4 5f 14 be 80 c5 6a bc be 43 35 be
       0.17605874 -0.14489609 -0.014329314 -0.17701623
000080 84 58 a2 bd 60 e4 cb bc 86 b2 73 be 40 97 36 bc
       -0.07927039 -0.024889171 -0.2379857 -0.011144459
000090 f0 76 a7 bd 70 c8 aa bd 7c fa 6d 3e 74 24 f7 3d
       -0.081769824 -0.08339012 0.23240083 0.120675
0000a0 4c d4 ee bd 7e e8 54 3e 30 db 74 3e a8 37 19 3e
       -0.11661586 0.20791814 0.23911738 0.14962637
0000b0 cc 6a 02 be bc bc 49 be 28 9c 1c be 48 41 78 be
       -0.12736052 -0.19700903 -0.15293944 -0.24243653
0000c0 a7 98 66 be ca b1 51 3e 31 73 11 3e 6a fc 54 be
       -0.2251917 0.20477977 0.14204098 -0.20799413
0000d0 7e f6 31 be cc bf f1 3c f9 f2 7e be c1 5c 68 be
       -0.17379186 0.029510401 -0.24897374 -0.22691633
0000e0 52 a1 57 3c b0 68 4c be 1a f1 39 be 0d 90 97 3d
       0.01316102 -0.1996181 -0.18158379 0.074005224
0000f0 12 27 0a bc 60 76 32 3e 80 5d c4 bd d7 6b e1 3d
       -0.008432167 0.17427969 -0.09588146 0.11006897
000100 df 1f 4d be 2a 28 73 bd 78 c5 9a 3b 7e 8b 37 3c
       -0.20031689 -0.059364475 0.004723247 0.011202691
000110 ad 29 4e be 51 61 d4 3d cc f3 05 3e 82 48 c1 3d
       -0.20133086 0.10370124 0.13081282 0.09437658
000120 c2 48 07 3e 01 07 c5 3d 5a 1c 69 3d 7d 93 50 be
       0.13211349 0.096204765 0.056911804 -0.20368762
000130 cf ae c1 3d 9d d0 ad bc ab 6c 3a be e0 f9 00 3e
       0.0945717 -0.021217639 -0.18205516 0.1259532
000140 69 14 37 3e 24 44 8d 3d b6 65 46 be 70 f3 64 be
       0.1787888 0.068977624 -0.19374737 -0.22358489
000150 1c 1c c0 bd 8d 91 73 bd b5 cd 49 3c ea aa 83 3c
       -0.093803614 -0.05946498 0.012317111 0.01607271
000160 93 6b 68 bd 29 a6 97 bd 76 fd 9b bd e6 4a 3d be
       -0.056743216 -0.074047394 -0.07616703 -0.18485603
000170 cc b1 e3 3d b2 9c 0a 3e 4f 70 32 be ba 17 a2 3d
       0.111178964 0.13536337 -0.17425655 0.07914682
000180 66 7d 40 be f4 db c9 3d 0c b6 0b be c8 86 56 3e
       -0.18797836 0.09856406 -0.13643664 0.20949852
000190 a4 e4 c0 3d c0 41 7f be bc 26 90 3d 08 5c 5e be
       0.0941861 -0.24927425 0.07038638 -0.21714795
0001a0 14 5a 32 be cc bb 21 3e e4 ae 82 3d dc 37 b9 3d
       -0.17417175 0.15794295 0.06381014 0.090438575
0001b0 f2 7b 1d 3e f0 64 e6 3c 28 fb ff bd 50 2c 58 bd
       0.15379313 0.028124303 -0.12499076 -0.052776635
0001c0 53 30 5f 3d 47 9a 17 3e 1e 5e 67 3e 01 bc 4f bd
       0.054489445 0.14804946 0.22594497 -0.050716404
0001d0 f9 71 b2 bd 32 e0 1f 3e 34 f1 e3 3d 23 0b 9e bc
       -0.08713145 0.15612867 0.1112999 -0.01929242
0001e0 09 f7 5d 3d 08 66 79 be 5c 96 57 be b3 46 8f bb
       0.05419067 -0.24355328 -0.21053451 -0.0043724417
0001f0 02 1f 81 bd 0e 76 27 3e 5d 37 ca bc 9c c9 dc 3d
       -0.063047424 0.16353628 -0.024684602 0.107806414
000200 49 10 df bd fb c7 64 be 9e c4 91 bd 9f 1b d6 bd
       -0.10891778 -0.22341911 -0.0711758 -0.10454487
000210 b4 ab 3c 3e ff db a3 bd ff 7c 7d 3e cf 27 71 3c
       0.18424875 -0.08000945 0.24754713 0.014718964
000220 b2 9d 26 be 39 bf 23 3d 28 69 21 be ba 1f bb 3c
       -0.16271093 0.039977286 -0.1576277 0.022842277
000230 6f cb a6 bd f0 3c 3f bd d1 16 7b bd 9b ba b4 3d
       -0.08144271 -0.046688974 -0.061301056 0.08824655
000240 f0 13 74 be f7 64 61 bd 07 bf ad 3c 9d 24 0a 3e
       -0.2383573 -0.05502793 0.021209253 0.1349053
000250 ef be 1c 3e bf 56 70 3e eb c1 65 3e b2 09 03 be
       0.1530721 0.23470591 0.22437255 -0.12796667
000260 69 ad 37 3c 27 81 74 3e 2a 29 a9 3c ed 93 6a be
       0.011210778 0.23877393 0.020649511 -0.22907992
000270 8d 5b 47 3e 48 6a 32 be dc 70 de bd e7 20 5f 3b
       0.19468518 -0.17423356 -0.1086137 0.003404671
000280 a4 8e 74 3e 02 f4 4c 3e f0 24 01 3d 00 14 ad 39
       0.23882538 0.20014957 0.031529367 0.00033012033
000290 08 61 46 be 62 85 73 3e b0 37 ed bc ba 8c 0f 3e
       -0.19372952 0.2378135 -0.028957218 0.14018527
0002a0 58 44 d0 3d 66 55 3b 3e ae 3a 24 be 6e 7b 5b be
       0.101692855 0.18294296 -0.1603801 -0.21433803
0002b0 a0 01 1d 3c ac 55 49 3e 00 5a e6 bb 46 b5 0e 3e
       0.009582907 0.19661587 -0.007029772 0.13936338
0002c0 2a 47 04 3e 86 88 45 be f4 61 02 be 68 eb 04 bd
       0.12917772 -0.19290361 -0.12732679 -0.032451063
0002d0 b6 7a 5b be 50 1b 38 3d 14 c8 05 3e 00 be f4 bc
       -0.2143353 0.044947922 0.13064605 -0.029875755
0002e0 e8 a6 69 3e 10 b3 a6 3d 2a a8 34 be e0 69 82 bd
       0.22817576 0.08139622 -0.17642274 -0.0636785
0002f0 b0 9a 9b bc 18 84 4b 3d c8 ed c4 bd 68 b7 e3 3d
       -0.01899466 0.04968652 -0.09615666 0.11118966
000300 08 08 e6 3d fa 00 34 be ec 97 6d be 70 19 d9 3d
       0.112320006 -0.17578498 -0.23202485 0.10600555
000310 a6 71 6b 3e a8 ce 5b 3d a4 90 48 be 40 78 f7 3b
       0.22992572 0.05366388 -0.19586426 0.0075521767
000320 0c 44 7b 3e 78 90 5f 3e c0 bc b4 3d e0 7c 38 3d
       0.24537677 0.21832454 0.08825064 0.045040965
000330 d0 c4 f5 3c 88 54 54 bd 30 64 a1 3d 16 67 24 be
       0.030001074 -0.051838428 0.078804374 -0.16054949
000340 1e b7 3a be 3a dc ef bd 11 60 4e 3d 98 81 76 be
       -0.18233916 -0.11711927 0.050384585 -0.24072874
000350 ba 8f 63 be e3 83 7c be 9f a5 fb bd 07 01 0e 3e
       -0.22222796 -0.24659686 -0.12287449 0.1386758
000360 a2 5c 72 be 3b 07 3b be 58 03 3d 3e 91 9b a8 3d
       -0.23668149 -0.18264477 0.18458307 0.08232797
000370 c2 94 3d 3e 0b 63 38 3e b2 9b 0e be c7 46 75 bd
       0.18513778 0.18006532 -0.1392658 -0.05988195
000380 8e 46 3b 3e 00 28 6e be 20 1f c4 bd 68 d6 41 3d
       0.18288633 -0.23257446 -0.09576249 0.047323614
000390 50 5d 32 3d c0 9c bd bc 54 2e 22 be a8 01 71 3d
       0.04354602 -0.023146033 -0.15837985 0.05883947
0003a0 d0 ee 73 be 38 fc 91 bd 1a d6 7c 3e 4c 9e a1 3d
       -0.23821568 -0.07128185 0.24691048 0.07891521
0003b0 80 99 2a be 90 23 5b 3d 80 bf 52 3d 3c 42 bf bd
       -0.16660118 0.053500712 0.05145216 -0.09338805
0003c0 b6 be 61 3e fc 03 21 be c0 8e ae 3b 64 88 d8 3d
       0.22045407 -0.15724176 0.0053270757 0.105728894
0003d0 f0 03 b2 3c b4 df e5 bd b4 38 82 bd b0 f1 8d bc
       0.021730393 -0.112243086 -0.063584715 -0.01732716
0003e0 40 91 a8 bb 96 5b 7c be f6 aa 12 be 50 96 00 be
       -0.0051442683 -0.24644312 -0.14323029 -0.1255734
0003f0 e4 24 3f be da 3a 14 be 10 49 8b 3d 34 2a 63 3e
       -0.18666416 -0.14475575 0.06801045 0.22184068

fc.bias f4 [128]
000000 5c 08 48 3e 74 f1 e7 bd fc 22 f0 3d bf 4e 78 bc
       0.19534439 -0.113253504 0.11725423 -0.015155493
000010 dd 9e 97 3d 2b 4e 33 3e 90 25 db 3d 2e a3 65 3e
       0.07403348 0.17510287 0.10700524 0.2242553
000020 65 35 5e 3e 46 73 47 3e 6c b2 5a be da c3 3f be
       0.21700056 0.19477567 -0.21357125 -0.18727055
000030 dc 70 24 be ea ea 4c 3b 7e 2b 0e 3e 80 66 f8 3c
       -0.16058677 0.003126795 0.13883778 0.030322313
000040 8e 96 0b 3e ec 74 a5 3d 40 49 b6 3d 42 2d 03 3e
       0.13631651 0.08078942 0.0890069 0.12810233
000050 7e 56 49 3e 5d 5e 6e 3e 63 6d 37 be 8e 2c 62 3e
       0.196619 0.23278184 -0.17912821 0.22087309
000060 46 f5 55 3e 90 94 33 bd 80 ac 38 3c 93 09 57 3e
       0.20894346 -0.043842852 0.011271596 0.20999746
000070 c3 6e 12 be 2a e6 43 be 76 bd 24 3c 98 b2 66 3e
       -0.14300065 -0.1913077 0.010054937 0.22529066
000080 68 a8 f1 3d d0 24 57 3e c0 24 7f be 80 38 3d bc
       0.11799699 0.21010137 -0.24916363 -0.011549115
000090 63 3a 02 3e 44 2b a8 bd a4 b2 cc 3c a9 9a e4 3d
       0.12717585 -0.08211377 0.024987526 0.111623116
0000a0 48 e0 0c be 84 13 48 be ee 95 08 3e af d9 1f 3e
       -0.13757432 -0.19538695 0.13338444 0.15610383
0000b0 c9 19 0f 3e 70 68 ca 3c f2 72 34 3e 10 96 85 bd
       0.1397468 0.024708003 0.17621973 -0.06522763
0000c0 98 a9 03 3d 10 63 86 3d dc bf 72 3e c0 e2 47 be
       0.03214416 0.065618634 0.23706001 -0.19520092
0000d0 a8 5e 32 be d0 ed f6 bd 8a bf 6f be b6 0c 02 be
       -0.17418921 -0.12057078 -0.2341291 -0.12700161
0000e0 44 1f 0e 3e 73 ca 36 3e 60 f3 25 be f8 49 fa 3d
       0.13879114 0.17850666 -0.16206121 0.1222114
0000f0 41 7b 1c 3e 54 31 b1 bd 49 00 48 be d6 2f 65 be
       0.15281393 -0.08651987 -0.19531359 -0.22381529
000100 63 f0 3c 3e 30 32 ca 3d 1c 74 ca bd a3 93 6a 3a
       0.18451075 0.09872854 -0.09885427 0.0008948391
000110 f8 82 07 3e c0 ab 6d be 18 d3 cd 3c b8 38 c1 3d
       0.13233554 -0.23210049 0.025125071 0.09434646
000120 a2 61 66 3d cd 0e 38 3e 8c b7 54 be f8 0d 82 3d
       0.056245454 0.17974396 -0.20773143 0.063503206
000130 60 47 b9 bd a2 15 08 3e 0f cf d5 3c 3c 0d 1d bd
       -0.09046817 0.13289502 0.02609971 -0.0383427
000140 d0 76 07 be c0 04 f4 3b 30 e2 41 3e 51 ad c7 bc
       -0.13228917 0.0074468553 0.1893394 -0.024374636
000150 c8 3b e5 bd 80 5c 35 3c 3c 07 ed 3d 44 e9 91 bd
       -0.11193043 0.011069417 0.115736455 -0.0712457
000160 58 d6 26 bd 58 8b f8 3c 30 1d 9d 3c 2f d1 5f be
       -0.040731758 0.030339882 0.019178957 -0.21857141
000170 19 4a 66 3e 4e 5e 6f 3e 17 20 6b 3d b8 61 8e bd
       0.22489204 0.23375818 0.05740365 -0.06952232
000180 e8 af 25 3e 56 25 19 be 95 38 25 3e e0 f9 7c be
       0.16180384 -0.14955649 0.16134866 -0.24704695
000190 fa e8 b9 bc 1a 8d 40 be 20 b0 5b 3c 80 85 50 bd
       -0.0226941 -0.18803826 0.013408691 -0.050908566
0001a0 de 9c 48 be e4 22 ac 3d 20 ec 36 3e 44 e9 05 bd
       -0.1959109 0.08405092 0.17863512 -0.032693163
0001b0 a2 e9 45 3e 70 bb 52 be a9 79 41 3d 24 ac 31 be
       0.19327405 -0.20579314 0.047235165 -0.17350823
0001c0 93 e0 ee bd 83 c8 d0 bc ae 5b 18 be cc 75 aa bd
       -0.11663928 -0.025486236 -0.14878723 -0.08323249
0001d0 f1 c0 fc bd d0 ec 61 3e 85 aa c4 bc 26 cd 11 be
       -0.12341488 0.22062993 -0.024007091 -0.14238414
0001e0 40 3b 3f be e4 ee 99 bd 0a bb c4 3b 04 d0 c8 bd
       -0.18674946 -0.07516268 0.006003742 -0.09805301
0001f0 00 13 8c 3d fb f6 12 3e a4 a2 42 be 00 61 b9 bb
       0.068395615 0.14352028 -0.19007355 -0.0056573153

fc2.weight f4 [3, 128]
000000 35 56 79 bd 20 4c 70 3d fe 5a 42 bd 42 8a bb bb
       -0.06087323 0.05866635 -0.04745006 -0.0057232687
000010 cc ba 26 3d 97 d1 59 3d eb 1f 33 bd e4 b5 91 bd
       0.040705487 0.053178396 -0.04373161 -0.07114771
000020 35 3c 3a bd e1 75 53 3d 3d 71 4c bd 97 c1 48 3d
       -0.045467574 0.05162609 -0.04991268 0.049012747
000030 23 3a 9c 3c 09 d0 83 3c 79 e5 29 3d d2 77 05 3d
       0.01907069 0.01609041 0.041478608 0.032584973
000040 d1 dd fb bc 8e 89 15 bd f7 12 27 bd 73 89 de 3c
       -0.030745419 -0.036508135 -0.04078957 0.02716515
000050 52 d4 bb 3b 71 15 03 3d c2 a9 52 bd d0 d5 15 bd
       0.0057320977 0.03200287 -0.051431425 -0.03658086
000060 c2 1b 8a bd b3 58 a8 bd 1c 2b 03 bd 50 9a a1 bd
       -0.06743576 -0.08220043 -0.032023534 -0.07890761
000070 61 78 d9 bb ff 49 84 3b 93 98 0b bd d1 e1 c9 3b
       -0.0066366647 0.0040371413 -0.034081053 0.0061609526
000080 52 8e 30 bd e5 34 b2 bd c2 66 8e bd 50 1c 9f 3c
       -0.043104477 -0.08701495 -0.06953193 0.01942268
000090 d8 8b aa 3d c9 11 a9 bd 44 94 8a bd c3 80 c9 bc
       0.08327454 -0.082553454 -0.06766561 -0.024597531
0000a0 0c b9 ab bd f4 54 a6 3d a3 ac 66 3c 3b 6d 92 bd
       -0.08384904 0.08121672 0.014079246 -0.0714974
0000b0 36 a0 41 3d 54 05 a8 3c 6b 5d 60 bd 69 e4 43 3d
       0.04727193 0.020510353 -0.05477659 0.04782525
0000c0 d2 1e f5 bc 44 5e 93 3a f7 a5 38 bd 68 7f 96 bd
       -0.029921923 0.0011243303 -0.04508015 -0.073485196
0000d0 5a f8 83 3d f9 9b 52 bd d1 01 1d bd 2b a4 a9 bd
       0.06443854 -0.05141828 -0.03833181 -0.08283266
0000e0 a2 46 59 bd 7d 62 39 3d a6 34 fa bc 96 a4 64 bc
       -0.053045876 0.04525994 -0.030542683 -0.013955256
0000f0 9c 69 19 bd eb 87 b2 3d 4e 01 9a bc 41 50 2f 3d
       -0.037454233 0.087173305 -0.01879945 0.042801145
000100 2d 65 34 bd ee 7b 8e bd 56 94 55 3d ba 91 a5 bd
       -0.0440418 -0.069572315 0.052143417 -0.08084436
000110 00 92 98 bd 72 56 9b bd 22 c0 72 bc 1d b4 8c bd
       -0.07449722 -0.075848475 -0.014816316 -0.068702914
000120 22 b6 ab bd 2f da 6e bd ab 3a 8e bd ff 2b 90 bd
       -0.083843485 -0.058313545 -0.06944784 -0.070396416
000130 40 51 db 3c 25 64 39 3d 7a 32 ae 3d 8c 57 66 3d
       0.026772141 0.04526152 0.085057214 0.056235835
000140 bc 67 57 bd 88 7f 1a bc d5 12 0e 3c 82 c0 e3 3c
       -0.052589163 -0.00942982 0.008671482 0.027801756
000150 0c ce 41 bd 14 05 c2 3c ee 3d bf bc 2b 52 b0 bd
       -0.047315642 0.023684062 -0.02334496 -0.08609422
000160 34 96 c4 ba ca 23 85 3d 46 10 89 bd 7d 00 91 3d
       -0.0014998377 0.06500967 -0.06692557 0.07080171
000170 b1 e0 8e 3d aa a5 5f bd f5 48 9b bd 74 8d 4a 3d
       0.0697645 -0.05460135 -0.07582275 0.049451306
000180 95 3f d1 bc 54 e8 b3 3d 70 7a 5f 3d 43 d1 a0 3d
       -0.025543014 0.087845474 0.054560125 0.078524135
000190 9d a9 96 3d c1 ad 04 bd e4 a3 4d bd ff 42 98 3b
       0.0735657 -0.032392267 -0.050205126 0.0046466584
0001a0 f3 eb 83 bd 12 b1 bc 3c 4c b4 81 bd 6a 45 2c 3d
       -0.06441488 0.023033652 -0.06333217 0.042058386
0001b0 9b b4 b6 3c f5 b1 8c bd ac b8 6a bd da 47 47 3c
       0.022302916 -0.0686988 -0.057305023 0.012163127
0001c0 03 95 89 3d 1b 22 9f bd 3e bb 9c 3d 10 b6 5e 3c
       0.06717875 -0.07770177 0.07652901 0.013593212
0001d0 5b 2c 81 3d 27 4a b6 bc 01 73 16 3d 34 15 54 bc
       0.06307288 -0.022252155 0.03673077 -0.012944508
0001e0 a6 cd 82 bd 2c 42 e1 bc cb f0 0b 3b 60 81 07 3d
       -0.063868806 -0.027497374 0.002135324 0.033082366
0001f0 a5 c2 bb bc 71 c8 48 bd 2d 0b 9d bb d9 e6 39 3d
       -0.022919962 -0.04901928 -0.004792592 0.04538617
000200 28 67 38 3a 86 8a 3e bb 1f 7a 80 3c 82 d5 04 3d
       0.00070344144 -0.0029074266 0.015683232 0.03243018
000210 61 eb 4c bd 30 4d 8a 3d 00 d0 a4 bd 19 d8 13 3d
       -0.050029162 0.067530036 -0.08047485 0.03609476
000220 5c 63 97 bd 03 d1 af bd 5b a0 31 bd 92 0b 50 bd
       -0.07391998 -0.08584788 -0.043365818 -0.050792284
000230 bd c7 02 bd 69 fc 11 3d 8f 8e 61 3c 26 d2 c9 3c
       -0.031928767 0.035641108 0.013766899 0.02463634
000240 9d af 93 3d 84 93 94 3d 90 84 af bd b4 fe bf bc
       0.0721123 0.07254699 -0.08570206 -0.023436882
000250 ab b0 63 bd 47 66 8b 3d 20 88 28 3c a0 b7 98 bd
       -0.055588406 0.06806617 0.010286361 -0.07456899
000260 41 a7 67 3d 61 ef a4 3c 6c f9 e9 bc e4 b9 ae bd
       0.05655599 0.020133676 -0.028561316 -0.085315496
000270 3a 9a 8b 3c 7f 55 00 bd 81 c0 41 bd dc fc b9 3b
       0.017041314 -0.031331535 -0.047302727 0.005675895
000280 e8 f7 6a 3d 02 26 f0 bc f9 1e d8 bc 89 ab b6 bb
       0.057365328 -0.029314999 -0.026381956 -0.005574648
000290 50 ba 10 bd 15 9c 5b bd 2a 7b 95 3d 22 53 00 bd
       -0.03533393 -0.05361565 0.07298882 -0.03132928
0002a0 a7 42 6d bd fe 02 8f bd aa ca 8d 3d 6b 18 19 3d
       -0.057924893 -0.069829926 0.06923421 0.037376802
0002b0 7c 80 a9 bd 8c 66 21 bd 62 38 13 3d f0 46 1f 3d
       -0.082764596 -0.039404437 0.035942443 0.03888601
0002c0 41 d9 98 3c bd f1 01 3d ab c1 96 bc 18 96 69 bb
       0.018658282 0.03172468 -0.018402895 -0.0035642441
0002d0 a7 76 76 3d 03 17 3c 3d 55 49 26 bc 68 d9 b6 ba
       0.06017175 0.045920383 -0.01014932 -0.001395029
0002e0 3d 14 9a 3d 82 b0 8e bd 3e 5d 54 3c 9f bc 4d bc
       0.075233914 -0.0696726 0.012961684 -0.012557178
0002f0 9a ba 91 bd 8c 3b 8b 3d 02 ea 03 3d 77 2e 8b bd
       -0.071156695 0.06798467 0.03220559 -0.06795972
000300 e3 99 77 3c 61 cc 71 bd 84 26 92 bd c3 31 4b 3c
       0.015112373 -0.0590328 -0.071362525 0.012402001
000310 3c a0 44 bd 74 8c 38 bb e7 d8 65 3d 89 f8 1a bc
       -0.048004374 -0.0028159888 0.056115057 -0.009458669
000320 51 ed 2e 3d d2 7b a5 3d d3 ad 16 3d 04 09 5f bc
       0.04270679 0.080802575 0.036786865 -0.013612989
000330 98 5b 97 bb f6 e0 c3 3c 9f ff 9b 3d 40 c7 62 bc
       -0.004619073 0.02391098 0.07617115 -0.01384145
000340 96 9b df 3c d8 37 19 bd a7 da 3d 3d 8b 36 35 3d
       0.027295869 -0.037406772 0.0463511 0.04424147
000350 0f 01 df 3b 6b a7 78 bd f4 27 06 3d 12 a4 1a bd
       0.006805546 -0.060706537 0.032752946 -0.037754126
000360 11 04 a0 3c ce 8e 54 bc 97 e1 d2 bc 36 35 65 bd
       0.019533189 -0.0129735 -0.025742335 -0.05595895
000370 be a8 06 bd 0e b8 2e 3c 6a 28 89 bd 2d 79 12 bd
       -0.03287577 0.010663999 -0.066971615 -0.035760093
000380 d6 2d 96 3d 27 fc d6 bb ff c0 ad 3d 10 e3 76 3d
       0.07332961 -0.0065608206 0.08484077 0.060275137
000390 e1 df 2c 3d af c9 5e 3c c0 83 f3 3c 76 9e 17 3d
       0.042205695 0.01359789 0.02972591 0.037016355
0003a0 95 4f a3 3d 92 12 5d bc 43 b0 8f bd f4 1e 37 bd
       0.079741634 -0.013493197 -0.07016041 -0.044707254
0003b0 6a 28 62 3d 1f 5d fc bc 9a 12 97 bd ae 35 38 3d
       0.055214323 -0.030806122 -0.07376595 0.044973068
0003c0 34 19 72 bd 67 f3 93 bd 82 11 77 3c 56 f7 1b bd
       -0.059106067 -0.0722416 0.015079858 -0.038077675
0003d0 0c 7c 4e bd b9 bf 44 bd 0a c6 e0 bb 8c cd a8 bd
       -0.05041127 -0.048034403 -0.0068595456 -0.0824233
0003e0 74 31 9c bd c6 03 e0 3c eb 09 82 bd a3 27 b2 bd
       -0.0762662 0.02734555 -0.06349548 -0.08698966
0003f0 d9 15 75 bd 67 06 85 bb 07 24 b3 bb 60 e5 7f bd
       -0.05983529 -0.004059601 -0.0054669413 -0.06247461

fc2.bias f4 [3]
000000 ea 3c 77 bd 23 f3 87 3d af 5e 20 3d
       -0.060360827 0.066381715 0.039152797
